…
            'DBG_TRAINABLE': False,
            'LOG_EVERY_N': 100,
            'LOSS': 'cross_entropy',
            'LOSS_ALPHA': 0.01,
            'MOMENTUM': 0.9,
            'OPTIMIZER': 'sgd',
            'PATIENCE': 300,
            'SCHEDULER': 'cosine',
            'TOTAL_EPOCH': 100,
            'WARMUP_EPOCH': 10,
            'WEIGHT_DECAY': 0.001,
            'WEIGHT_DECAY_BIAS': 0},
 'WORLD_SIZE': 4}
[06/11 23:52:59][INFO] visual_prompt:   52: Classification Model:
ViT(
  (enc): PromptedVisionTransformer(
    (transformer): PromptedTransformer(
      (embeddings): Embeddings(
        (patch_embeddings): Conv2d(3, 768, kernel_size=(16, 16), stride=(16, 16))
        (dropout): Dropout(p=0.1, inplace=False)
      )
      (encoder): Encoder(
        (layer): ModuleList(
          (0): Block(
            (attention_norm): LayerNorm((768,), eps=1e-06, elementwise_affine=True)
            (ffn_norm): LayerNorm((768,), eps=1e-06, elementwise_affine=True)
            (ffn): Mlp(
              (fc1): Linear(in_features=768, out_features=3072, bias=True)
              (fc2): Linear(in_features=3072, out_features=768, bias=True)
              (dropout): Dropout(p=0.1, inplace=False)
            )
            (attn): Attention(
              (query): Linear(in_features=768, out_features=768, bias=True)
              (key): Linear(in_features=768, out_features=768, bias=True)
              (value): Linear(in_features=768, out_features=768, bias=True)
              (out): Linear(in_features=768, out_features=768, bias=True)
              (attn_dropout): Dropout(p=0.0, inplace=False)
              (proj_dropout): Dropout(p=0.0, inplace=False)
              (softmax): Softmax(dim=-1)
            )
          )
          (1): Block(
            (attention_norm): LayerNorm((768,), eps=1e-06, elementwise_affine=True)
            (ffn_norm): LayerNorm((768,), eps=1e-06, elementwise_affine=True)
            (ffn): Mlp(
              (fc1): Linear(in_features=768, out_features=3072, bias=True)
              (fc2): Linear(in_features=3072, out_features=768, bias=True)
              (dropout): Dropout(p=0.1, inplace=False)
            )
            (attn): Attention(
              (query): Linear(in_features=768, out_features=768, bias=True)
              (key): Linear(in_features=768, out_features=768, bias=True)
              (value): Linear(in_features=768, out_features=768, bias=True)
              (out): Linear(in_features=768, out_features=768, bias=True)
              (attn_dropout): Dropout(p=0.0, inplace=False)
              (proj_dropout): Dropout(p=0.0, inplace=False)
              (softmax): Softmax(dim=-1)
            )
          )
          (2): Block(
            (attention_norm): LayerNorm((768,), eps=1e-06, elementwise_affine=True)
            (ffn_norm): LayerNorm((768,), eps=1e-06, elementwise_affine=True)
            (ffn): Mlp(
              (fc1): Linear(in_features=768, out_features=3072, bias=True)
              (fc2): Linear(in_features=3072, out_features=768, bias=True)
              (dropout): Dropout(p=0.1, inplace=False)
            )
            (attn): Attention(
              (query): Linear(in_features=768, out_features=768, bias=True)
              (key): Linear(in_features=768, out_features=768, bias=True)
              (value): Linear(in_features=768, out_features=768, bias=True)
              (out): Linear(in_features=768, out_features=768, bias=True)
              (attn_dropout): Dropout(p=0.0, inplace=False)
              (proj_dropout): Dropout(p=0.0, inplace=False)
              (softmax): Softmax(dim=-1)
            )
          )
          (3): Block(
            (attention_norm): LayerNorm((768,), eps=1e-06, elementwise_affine=True)
            (ffn_norm): LayerNorm((768,), eps=1e-06, elementwise_affine=True)
            (ffn): Mlp(
              (fc1): Linear(in_features=768, out_features=3072, bias=True)
              (fc2): Linear(in_features=3072, out_features=768, bias=True)
              (dropout): Dropout(p=0.1, inplace=False)
            )
            (attn): Attention(
              (query): Linear(in_features=768, out_features=768, bias=True)
              (key): Linear(in_features=768, out_features=768, bias=True)
              (value): Linear(in_features=768, out_features=768, bias=True)
              (out): Linear(in_features=768, out_features=768, bias=True)
              (attn_dropout): Dropout(p=0.0, inplace=False)
              (proj_dropout): Dropout(p=0.0, inplace=False)
              (softmax): Softmax(dim=-1)
            )
          )
          (4): Block(
            (attention_norm): LayerNorm((768,), eps=1e-06, elementwise_affine=True)
            (ffn_norm): LayerNorm((768,), eps=1e-06, elementwise_affine=True)
            (ffn): Mlp(
              (fc1): Linear(in_features=768, out_features=3072, bias=True)
              (fc2): Linear(in_features=3072, out_features=768, bias=True)
              (dropout): Dropout(p=0.1, inplace=False)
            )
            (attn): Attention(
              (query): Linear(in_features=768, out_features=768, bias=True)
              (key): Linear(in_features=768, out_features=768, bias=True)
              (value): Linear(in_features=768, out_features=768, bias=True)
              (out): Linear(in_features=768, out_features=768, bias=True)
              (attn_dropout): Dropout(p=0.0, inplace=False)
              (proj_dropout): Dropout(p=0.0, inplace=False)
              (softmax): Softmax(dim=-1)
            )
          )
          (5): Block(
            (attention_norm): LayerNorm((768,), eps=1e-06, elementwise_affine=True)
            (ffn_norm): LayerNorm((768,), eps=1e-06, elementwise_affine=True)
            (ffn): Mlp(
              (fc1): Linear(in_features=768, out_features=3072, bias=True)
              (fc2): Linear(in_features=3072, out_features=768, bias=True)
              (dropout): Dropout(p=0.1, inplace=False)
            )
            (attn): Attention(
              (query): Linear(in_features=768, out_features=768, bias=True)
              (key): Linear(in_features=768, out_features=768, bias=True)
              (value): Linear(in_features=768, out_features=768, bias=True)
              (out): Linear(in_features=768, out_features=768, bias=True)
              (attn_dropout): Dropout(p=0.0, inplace=False)
              (proj_dropout): Dropout(p=0.0, inplace=False)
              (softmax): Softmax(dim=-1)
            )
          )
          (6): Block(
            (attention_norm): LayerNorm((768,), eps=1e-06, elementwise_affine=True)
            (ffn_norm): LayerNorm((768,), eps=1e-06, elementwise_affine=True)
            (ffn): Mlp(
              (fc1): Linear(in_features=768, out_features=3072, bias=True)
              (fc2): Linear(in_features=3072, out_features=768, bias=True)
              (dropout): Dropout(p=0.1, inplace=False)
            )
            (attn): Attention(
              (query): Linear(in_features=768, out_features=768, bias=True)
              (key): Linear(in_features=768, out_features=768, bias=True)
              (value): Linear(in_features=768, out_features=768, bias=True)
              (out): Linear(in_features=768, out_features=768, bias=True)
              (attn_dropout): Dropout(p=0.0, inplace=False)
              (proj_dropout): Dropout(p=0.0, inplace=False)
              (softmax): Softmax(dim=-1)
            )
          )
          (7): Block(
            (attention_norm): LayerNorm((768,), eps=1e-06, elementwise_affine=True)
            (ffn_norm): LayerNorm((768,), eps=1e-06, elementwise_affine=True)
            (ffn): Mlp(
              (fc1): Linear(in_features=768, out_features=3072, bias=True)
              (fc2): Linear(in_features=3072, out_features=768, bias=True)
              (dropout): Dropout(p=0.1, inplace=False)
            )
            (attn): Attention(
              (query): Linear(in_features=768, out_features=768, bias=True)
              (key): Linear(in_features=768, out_features=768, bias=True)
              (value): Linear(in_features=768, out_features=768, bias=True)
              (out): Linear(in_features=768, out_features=768, bias=True)
              (attn_dropout): Dropout(p=0.0, inplace=False)
              (proj_dropout): Dropout(p=0.0, inplace=False)
              (softmax): Softmax(dim=-1)
            )
          )
          (8): Block(
            (attention_norm): LayerNorm((768,), eps=1e-06, elementwise_affine=True)
            (ffn_norm): LayerNorm((768,), eps=1e-06, elementwise_affine=True)
            (ffn): Mlp(
              (fc1): Linear(in_features=768, out_features=3072, bias=True)
              (fc2): Linear(in_features=3072, out_features=768, bias=True)
              (dropout): Dropout(p=0.1, inplace=False)
            )
            (attn): Attention(
              (query): Linear(in_features=768, out_features=768, bias=True)
              (key): Linear(in_features=768, out_features=768, bias=True)
              (value): Linear(in_features=768, out_features=768, bias=True)
              (out): Linear(in_features=768, out_features=768, bias=True)
              (attn_dropout): Dropout(p=0.0, inplace=False)
              (proj_dropout): Dropout(p=0.0, inplace=False)
              (softmax): Softmax(dim=-1)
            )
          )
          (9): Block(
            (attention_norm): LayerNorm((768,), eps=1e-06, elementwise_affine=True)
            (ffn_norm): LayerNorm((768,), eps=1e-06, elementwise_affine=True)
            (ffn): Mlp(
              (fc1): Linear(in_features=768, out_features=3072, bias=True)
              (fc2): Linear(in_features=3072, out_features=768, bias=True)
              (dropout): Dropout(p=0.1, inplace=False)
            )
            (attn): Attention(
              (query): Linear(in_features=768, out_features=768, bias=True)
              (key): Linear(in_features=768, out_features=768, bias=True)
              (value): Linear(in_features=768, out_features=768, bias=True)
              (out): Linear(in_features=768, out_features=768, bias=True)
              (attn_dropout): Dropout(p=0.0, inplace=False)
              (proj_dropout): Dropout(p=0.0, inplace=False)
              (softmax): Softmax(dim=-1)
            )
          )
          (10): Block(
            (attention_norm): LayerNorm((768,), eps=1e-06, elementwise_affine=True)
            (ffn_norm): LayerNorm((768,), eps=1e-06, elementwise_affine=True)
            (ffn): Mlp(
              (fc1): Linear(in_features=768, out_features=3072, bias=True)
              (fc2): Linear(in_features=3072, out_features=768, bias=True)
              (dropout): Dropout(p=0.1, inplace=False)
            )
            (attn): Attention(
              (query): Linear(in_features=768, out_features=768, bias=True)
              (key): Linear(in_features=768, out_features=768, bias=True)
              (value): Linear(in_features=768, out_features=768, bias=True)
              (out): Linear(in_features=768, out_features=768, bias=True)
              (attn_dropout): Dropout(p=0.0, inplace=False)
              (proj_dropout): Dropout(p=0.0, inplace=False)
              (softmax): Softmax(dim=-1)
            )
          )
          (11): Block(
            (attention_norm): LayerNorm((768,), eps=1e-06, elementwise_affine=True)
            (ffn_norm): LayerNorm((768,), eps=1e-06, elementwise_affine=True)
            (ffn): Mlp(
              (fc1): Linear(in_features=768, out_features=3072, bias=True)
              (fc2): Linear(in_features=3072, out_features=768, bias=True)
              (dropout): Dropout(p=0.1, inplace=False)
            )
            (attn): Attention(
              (query): Linear(in_features=768, out_features=768, bias=True)
              (key): Linear(in_features=768, out_features=768, bias=True)
              (value): Linear(in_features=768, out_features=768, bias=True)
              (out): Linear(in_features=768, out_features=768, bias=True)
              (attn_dropout): Dropout(p=0.0, inplace=False)
              (proj_dropout): Dropout(p=0.0, inplace=False)
              (softmax): Softmax(dim=-1)
            )
          )
        )
        (encoder_norm): LayerNorm((768,), eps=1e-06, elementwise_affine=True)
      )
      (prompt_dropout): Dropout(p=0.1, inplace=False)
      (prompt_proj): Identity()
    )
    (head): Identity()
  )
  (head): ModuleList(
    (0): MLP(
      (projection): Sequential()
      (last_layer): Linear(in_features=768, out_features=1000, bias=True)
    )
    (1): MLP(
      (projection): Sequential()
      (last_layer): Linear(in_features=768, out_features=1000, bias=True)
    )
    (2): MLP(
      (projection): Sequential()
      (last_layer): Linear(in_features=768, out_features=1000, bias=True)
    )
    (3): MLP(
      (projection): Sequential()
      (last_layer): Linear(in_features=768, out_features=1000, bias=True)
    )
    (4): MLP(
      (projection): Sequential()
      (last_layer): Linear(in_features=768, out_features=1000, bias=True)
    )
    (5): MLP(
      (projection): Sequential()
      (last_layer): Linear(in_features=768, out_features=1000, bias=True)
    )
    (6): MLP(
      (projection): Sequential()
      (last_layer): Linear(in_features=768, out_features=1000, bias=True)
    )
    (7): MLP(
      (projection): Sequential()
      (last_layer): Linear(in_features=768, out_features=1000, bias=True)
    )
    (8): MLP(
      (projection): Sequential()
      (last_layer): Linear(in_features=768, out_features=1000, bias=True)
    )
    (9): MLP(
      (projection): Sequential()
      (last_layer): Linear(in_features=768, out_features=1000, bias=True)
    )
    (10): MLP(
      (projection): Sequential()
      (last_layer): Linear(in_features=768, out_features=1000, bias=True)
    )
    (11): MLP(
      (projection): Sequential()
      (last_layer): Linear(in_features=768, out_features=1000, bias=True)
    )
    (12): MLP(
      (projection): Sequential()
      (last_layer): Linear(in_features=768, out_features=1000, bias=True)
    )
    (13): MLP(
      (projection): Sequential()
      (last_layer): Linear(in_features=768, out_features=1000, bias=True)
    )
    (14): MLP(
      (projection): Sequential()
      (last_layer): Linear(in_features=768, out_features=1000, bias=True)
    )
    (15): MLP(
      (projection): Sequential()
      (last_layer): Linear(in_features=768, out_features=1000, bias=True)
    )
    (16): MLP(
      (projection): Sequential()
      (last_layer): Linear(in_features=768, out_features=1000, bias=True)
    )
    (17): MLP(
      (projection): Sequential()
      (last_layer): Linear(in_features=768, out_features=1000, bias=True)
    )
    (18): MLP(
      (projection): Sequential()
      (last_layer): Linear(in_features=768, out_features=1000, bias=True)
    )
    (19): MLP(
      (projection): Sequential()
      (last_layer): Linear(in_features=768, out_features=1000, bias=True)
    )
    (20): MLP(
      (projection): Sequential()
      (last_layer): Linear(in_features=768, out_features=1000, bias=True)
    )
    (21): MLP(
      (projection): Sequential()
      (last_layer): Linear(in_features=768, out_features=1000, bias=True)
    )
    (22): MLP(
      (projection): Sequential()
      (last_layer): Linear(in_features=768, out_features=1000, bias=True)
    )
    (23): MLP(
      (projection): Sequential()
      (last_layer): Linear(in_features=768, out_features=1000, bias=True)
    )
    (24): MLP(
      (projection): Sequential()
      (last_layer): Linear(in_features=768, out_features=1000, bias=True)
    )
    (25): MLP(
      (projection): Sequential()
      (last_layer): Linear(in_features=768, out_features=1000, bias=True)
    )
    (26): MLP(
      (projection): Sequential()
      (last_layer): Linear(in_features=768, out_features=1000, bias=True)
    )
    (27): MLP(
      (projection): Sequential()
      (last_layer): Linear(in_features=768, out_features=1000, bias=True)
    )
    (28): MLP(
      (projection): Sequential()
      (last_layer): Linear(in_features=768, out_features=1000, bias=True)
    )
    (29): MLP(
      (projection): Sequential()
      (last_layer): Linear(in_features=768, out_features=1000, bias=True)
    )
    (30): MLP(
      (projection): Sequential()
      (last_layer): Linear(in_features=768, out_features=1000, bias=True)
    )
  )
)
[06/11 23:52:59][INFO] visual_prompt:   56: Total Parameters: 110828056	 Gradient Parameters: 25029400
[06/11 23:52:59][INFO] visual_prompt:   58: tuned percent:22.584
[06/11 23:52:59][INFO] visual_prompt:   44: Device used for model: 0
[06/11 23:52:59][INFO] visual_prompt:   72: Loading training data (final training data for vtab)...
[06/11 23:52:59][INFO] visual_prompt:   49: Constructing imagenet dataset train...
…
